Cnn.pt (torch, 91514 bytes, 20 tensors)

conv0.weight f4 [3, 3, 5, 5]
0	0xbd896d70	-0.06710327
1	0xbcf2a058	-0.029617473
2	0x3b0f5ec0	0.0021876544
3	0x3e28ebab	0.1649615
4	0x3ccc8930	0.02496776
5	0x3e377019	0.17913856
6	0x3dfa8eb2	0.12234248
7	0xbe017a38	-0.12644279
8	0x3db7b512	0.08970083
9	0xbe10c5b6	-0.1413792
10	0xbdad994a	-0.08476503
11	0x3d70f204	0.058824554
12	0x3d873f26	0.066038415
13	0x3e19a58f	0.15004562
14	0xbd83db54	-0.06438318
15	0x39a7dc00	0.00032016635
16	0x3dd2df2a	0.102964714
17	0xbe460f7b	-0.19341843
18	0x3e141101	0.14459611
19	0xbe295a8d	-0.16538449
20	0x3b34a680	0.0027565062
21	0xbd0b4718	-0.034003347
22	0xbdd7b9aa	-0.105334595
23	0x3cd88c90	0.026434213
24	0x3e295a5b	0.16538374
25	0xbd6f77d8	-0.0584639
26	0xbdf32d57	-0.11873882
27	0xbd977c6a	-0.07396777
28	0xbe4afcb8	-0.19822967
29	0x3db8e416	0.09027879
30	0xbdc4b74d	-0.09605274
31	0xbe08abda	-0.13346806
32	0xbdebf89d	-0.115220286
33	0x3deb8082	0.1149912
34	0x3dd8e9d2	0.10591473
35	0x3e1d3041	0.15350439
36	0x3d949246	0.07254462
37	0xbd88ca36	-0.06679194
38	0xbd64ec88	-0.055889636
39	0x3d720424	0.05908598
40	0x3e285a4b	0.16440694
41	0x3d5ebbec	0.054378435
42	0xbdc1cce3	-0.09462907
43	0xbdc08b30	-0.09401548
44	0xbe41a1cf	-0.18909381
45	0x3d30fc8c	0.043209597
46	0xbde5dc40	-0.1122365
47	0xbe369840	-0.17831516
48	0x3e339595	0.1753753
49	0xbe04ffda	-0.12988225
50	0xbcba6310	-0.022752315
51	0x3d6ab20c	0.057298705
52	0x3bd0c960	0.006371662
53	0xbe09ce62	-0.13457635
54	0xbe258b56	-0.16166434
55	0x3e233e13	0.15941648
56	0x3d0565c0	0.03256774
57	0x3e29e839	0.16592492
58	0xbd895086	-0.06704812
59	0x3d714cc4	0.0589111
60	0xbd3b54e0	-0.04573524
61	0xbc11b920	-0.008894235
62	0xbdf976ea	-0.12180884
63	0x3d8a86f2	0.0676402
64	0x3d818066	0.06323318
65	0xbb873100	-0.0041257143
66	0xbd383d68	-0.044980437
67	0xbdfc7d5a	-0.123285964
68	0x3e0da0dd	0.13830896
69	0xbe187543	-0.14888482
70	0x3da7cc8a	0.081933096
71	0xbd89babc	-0.0672507
72	0xbdc59e70	-0.0964936
73	0x3d132a4c	0.03592901
74	0xbdd4c503	-0.103891395
75	0x3d3cbf68	0.046080977
76	0x3d20e00c	0.039276168
77	0xbe180fd5	-0.1484979
78	0x3d086548	0.033299714
79	0x3dae75ea	0.08518584
80	0x3da221e2	0.07916619
81	0xbcce3d58	-0.025175735
82	0xbe27e47b	-0.16395752
83	0xbcfc90e8	-0.030830815
84	0x3d8e41da	0.06946154
85	0xbd957424	-0.07297543
86	0x3d9b79f6	0.075916216
87	0x3e08639f	0.13319252
88	0xbdd5df90	-0.10443032
89	0x3b0142c0	0.0019723624
90	0x3da95e82	0.08269979
91	0x3c806a10	0.015675575
92	0x3c88dba8	0.016706303
93	0x3ccc9458	0.02497308
94	0xbe2100c8	-0.15722954
95	0x3c80c250	0.015717655
96	0x3e0dd15d	0.13849397
97	0x3e388c51	0.18022276
98	0x3df0be26	0.11755018
99	0x3cdb8cf0	0.026800603
100	0x3dbf49fe	0.09340285
101	0xbdc74317	-0.09729593
102	0xbe29b723	-0.16573767
103	0xbe301ca2	-0.17198423
104	0x3e4c4f7b	0.19952194
105	0x3e02013f	0.12695788
106	0xbe0d908e	-0.13824674
107	0x3da040c2	0.078248516
108	0x3e1aa889	0.15103354
109	0x3e4cb89b	0.19992296
110	0x3e331379	0.17487897
111	0x3e1eab69	0.15495075
112	0xbd3bcf28	-0.045851856
113	0xbd8fbee6	-0.07018833
114	0x3e28269b	0.16420977
115	0x3de58812	0.11207594
116	0xbdf67d1a	-0.1203558
117	0x3e381e65	0.17980345
118	0x3dc5e6da	0.09663172
119	0x3ddf499a	0.1090271
120	0xbe005d22	-0.12535527
121	0x3d6b0744	0.057379976
122	0xbd8f9724	-0.0701125
123	0x3e200597	0.15627132
124	0xbd136848	-0.035988122
125	0x3d9f7662	0.077862516
126	0x3d118200	0.03552437
127	0x3dae4592	0.08509363
128	0xbd8b3180	-0.06796551
129	0x3dc7b592	0.09751429
130	0xbe0f0bfe	-0.13969418
131	0x3d390538	0.045170993
132	0xbe0a90e6	-0.13531837
133	0xbe4a0afb	-0.19730751
134	0xbe247740	-0.16061115
135	0x3e21aef9	0.15789403
136	0x3ddd9bb2	0.10820712
137	0x3e402587	0.18764316
138	0x3e2411d3	0.16022424
139	0xbe36e54d	-0.17860909
140	0xbe0bc30c	-0.13648623
141	0xbd045e54	-0.03231652
142	0xbe0500f5	-0.12988646
143	0x3e0e3661	0.13887931
144	0xbe1ad495	-0.15120156
145	0xbdc7d82d	-0.09758029
146	0xbe45db03	-0.19321828
147	0xbde88c70	-0.11354911
148	0x3e287181	0.16449548
149	0x3e27ae9b	0.163752
150	0x3e129a83	0.14316754
151	0x3e1e21b5	0.15442546
152	0x3e361afb	0.1778373
153	0xbd51c44c	-0.051212594
154	0x3db43992	0.08800043
155	0x3e367669	0.17818607
156	0x3d8780de	0.06616376
157	0x3e4cbbd5	0.19993527
158	0x3dd471c2	0.1037326
159	0x3dfea08e	0.12432967
160	0xbd8f5b56	-0.06999843
161	0x3dc48992	0.09596552
162	0x3cbc4350	0.022981316
163	0xbd43a3a0	-0.047763467
164	0xbde6e543	-0.11274197
165	0xbde5d557	-0.11222332
166	0xbe1d96f5	-0.15389617
167	0x3e097d0b	0.13426606
168	0x3e119945	0.14218624
169	0xbcba7880	-0.022762537
170	0xbded07a0	-0.1157372
171	0x3e1e4a81	0.15458108
172	0x3e02f7a3	0.12789778
173	0x3c7393e0	0.014866799
174	0xbdc162fa	-0.094427064
175	0x3e3c3893	0.18380956
176	0x3da7808a	0.08178814
177	0xbe1b7915	-0.15182908
178	0x3e4402b5	0.19141658
179	0x3e1b850f	0.15187477
180	0xbd954ba4	-0.07289818
181	0x3de6422e	0.112430915
182	0xbde8baf0	-0.113637805
183	0xbd006160	-0.031342864
184	0x3e2de55b	0.16982023
185	0x3c076500	0.008263826
186	0xbe10d69a	-0.14144364
187	0xbd88e6dc	-0.06684658
188	0xbd5e5e2c	-0.054289028
189	0xbd1e0c18	-0.038585752
190	0x3c9ccbc0	0.019140124
191	0x3e3d67b5	0.18496592
192	0x3c2f70e0	0.010708064
193	0xbdfce747	-0.123488
194	0x3c27f330	0.0102508515
195	0x3dc465e2	0.09589745
196	0x3dcb2d96	0.09920804
197	0xbe3b2cb3	-0.1827877
198	0xbd1296f4	-0.03578849
199	0xbe18322d	-0.1486289
200	0xbdaec53a	-0.08533712
201	0x3d939382	0.07205869
202	0xbe116f46	-0.14202604
203	0x3d984262	0.074345365
204	0x3e2dd46b	0.16975562
205	0x3c56eb80	0.013117671
206	0xbe087f26	-0.13329753
207	0xbd92c0e6	-0.07165699
208	0x3d32e248	0.04367283
209	0xbe1c1f6b	-0.1524636
210	0x3dcb7e56	0.09936206
211	0xbe39ee83	-0.18157391
212	0xbe44df75	-0.19225867
213	0xbe46ff00	-0.19433212
214	0xbd262f88	-0.040572673
215	0x3e09b6d9	0.13448657
216	0xbe41d6c2	-0.1892958
217	0x3e2a3a25	0.16623743
218	0xbda3d970	-0.08000457
219	0x3d6fee44	0.058576837
220	0x3c156e80	0.0091205835
221	0xbe38ac0d	-0.18034382
222	0x3e29d8b9	0.1658658
223	0x3ddc8be2	0.10768868
224	0x3e4b9201	0.19879915

conv0.bias f4 [3]
0	0x3d6a4bec	0.05720131
1	0xbda8712a	-0.08224709
2	0xbd06420a	-0.032777824

conv1.weight f4 [30, 3, 5, 5]
0	0x00000000	0.0
1	0x00000000	0.0
2	0x00000000	0.0
3	0x00000000	0.0
4	0x00000000	0.0
5	0x00000000	0.0
6	0x00000000	0.0
7	0x00000000	0.0
8	0x00000000	0.0
9	0x00000000	0.0
10	0x00000000	0.0
11	0x00000000	0.0
12	0xbf800000	-1.0
13	0x3f800000	1.0
14	0x00000000	0.0
15	0x00000000	0.0
16	0x00000000	0.0
17	0x00000000	0.0
18	0x00000000	0.0
19	0x00000000	0.0
20	0x00000000	0.0
21	0x00000000	0.0
22	0x00000000	0.0
23	0x00000000	0.0
24	0x00000000	0.0
25	0x00000000	0.0
26	0x00000000	0.0
27	0x00000000	0.0
28	0x00000000	0.0
29	0x00000000	0.0
30	0x00000000	0.0
31	0x00000000	0.0
32	0x3f800000	1.0
33	0x00000000	0.0
34	0x00000000	0.0
35	0x00000000	0.0
36	0x00000000	0.0
37	0xbf800000	-1.0
38	0x00000000	0.0
39	0x00000000	0.0
40	0x00000000	0.0
41	0x00000000	0.0
42	0x00000000	0.0
43	0x00000000	0.0
44	0x00000000	0.0
45	0x00000000	0.0
46	0x00000000	0.0
47	0x00000000	0.0
48	0x00000000	0.0
49	0x00000000	0.0
50	0x00000000	0.0
51	0x00000000	0.0
52	0x00000000	0.0
53	0x00000000	0.0
54	0x00000000	0.0
55	0x00000000	0.0
56	0x00000000	0.0
57	0x00000000	0.0
58	0x00000000	0.0
59	0x00000000	0.0
60	0x00000000	0.0
61	0x3f800000	1.0
62	0xbf800000	-1.0
63	0x00000000	0.0
64	0x00000000	0.0
65	0x00000000	0.0
66	0x00000000	0.0
67	0x00000000	0.0
68	0x00000000	0.0
69	0x00000000	0.0
70	0x00000000	0.0
71	0x00000000	0.0
72	0x00000000	0.0
73	0x00000000	0.0
74	0x00000000	0.0
75	0x00000000	0.0
76	0x00000000	0.0
77	0x00000000	0.0
78	0x00000000	0.0
79	0x00000000	0.0
80	0x00000000	0.0
81	0x00000000	0.0
82	0x00000000	0.0
83	0x00000000	0.0
84	0x00000000	0.0
85	0x00000000	0.0
86	0x00000000	0.0
87	0xbf800000	-1.0
88	0x00000000	0.0
89	0x00000000	0.0
90	0x00000000	0.0
91	0x00000000	0.0
92	0x3f800000	1.0
93	0x00000000	0.0
94	0x00000000	0.0
95	0x00000000	0.0
96	0x00000000	0.0
97	0x00000000	0.0
98	0x00000000	0.0
99	0x00000000	0.0
100	0x00000000	0.0
101	0x00000000	0.0
102	0x00000000	0.0
103	0x00000000	0.0
104	0x00000000	0.0
105	0x00000000	0.0
106	0x00000000	0.0
107	0x00000000	0.0
108	0x3f800000	1.0
109	0x00000000	0.0
110	0x00000000	0.0
111	0x00000000	0.0
112	0xbf800000	-1.0
113	0x00000000	0.0
114	0x00000000	0.0
115	0x00000000	0.0
116	0x00000000	0.0
117	0x00000000	0.0
118	0x00000000	0.0
119	0x00000000	0.0
120	0x00000000	0.0
121	0x00000000	0.0
122	0x00000000	0.0
123	0x00000000	0.0
124	0x00000000	0.0
125	0x00000000	0.0
126	0x00000000	0.0
127	0x00000000	0.0
128	0x00000000	0.0
129	0x00000000	0.0
130	0x00000000	0.0
131	0x3f800000	1.0
132	0x00000000	0.0
133	0x00000000	0.0
134	0x00000000	0.0
135	0x00000000	0.0
136	0x00000000	0.0
137	0xbf800000	-1.0
138	0x00000000	0.0
139	0x00000000	0.0
140	0x00000000	0.0
141	0x00000000	0.0
142	0x00000000	0.0
143	0x00000000	0.0
144	0x00000000	0.0
145	0x00000000	0.0
146	0x00000000	0.0
147	0x00000000	0.0
148	0x00000000	0.0
149	0x00000000	0.0
150	0x00000000	0.0
151	0x00000000	0.0
152	0x00000000	0.0
153	0x00000000	0.0
154	0x00000000	0.0
155	0x00000000	0.0
156	0x00000000	0.0
157	0x00000000	0.0
158	0x00000000	0.0
159	0x00000000	0.0
160	0x00000000	0.0
161	0x00000000	0.0
162	0xbf800000	-1.0
163	0x00000000	0.0
164	0x00000000	0.0
165	0x00000000	0.0
166	0x3f800000	1.0
167	0x00000000	0.0
168	0x00000000	0.0
169	0x00000000	0.0
170	0x00000000	0.0
171	0x00000000	0.0
172	0x00000000	0.0
173	0x00000000	0.0
174	0x00000000	0.0
175	0x00000000	0.0
176	0x00000000	0.0
177	0x00000000	0.0
178	0x00000000	0.0
179	0x00000000	0.0
180	0x00000000	0.0
181	0x00000000	0.0
182	0x00000000	0.0
183	0x00000000	0.0
184	0x00000000	0.0
185	0x00000000	0.0
186	0x00000000	0.0
187	0xbf800000	-1.0
188	0x00000000	0.0
189	0x00000000	0.0
190	0x00000000	0.0
191	0x00000000	0.0
192	0x00000000	0.0
193	0x3f800000	1.0
194	0x00000000	0.0
195	0x00000000	0.0
196	0x00000000	0.0
197	0x00000000	0.0
198	0x00000000	0.0
199	0x00000000	0.0
200	0x00000000	0.0
201	0x00000000	0.0
202	0x00000000	0.0
203	0x00000000	0.0
204	0x00000000	0.0
205	0x00000000	0.0
206	0x00000000	0.0
207	0x00000000	0.0
208	0x00000000	0.0
209	0x00000000	0.0
210	0x00000000	0.0
211	0x3f800000	1.0
212	0xc0000000	-2.0
213	0x3f800000	1.0
214	0x00000000	0.0
215	0x00000000	0.0
216	0x00000000	0.0
217	0x00000000	0.0
218	0x00000000	0.0
219	0x00000000	0.0
220	0x00000000	0.0
221	0x00000000	0.0
222	0x00000000	0.0
223	0x00000000	0.0
224	0x00000000	0.0
225	0x00000000	0.0
226	0x00000000	0.0
227	0x00000000	0.0
228	0x00000000	0.0
229	0x00000000	0.0
230	0x00000000	0.0
231	0x00000000	0.0
232	0x3f800000	1.0
233	0x00000000	0.0
234	0x00000000	0.0
235	0x00000000	0.0
236	0x00000000	0.0
237	0xc0000000	-2.0
238	0x00000000	0.0
239	0x00000000	0.0
240	0x00000000	0.0
241	0x00000000	0.0
242	0x3f800000	1.0
243	0x00000000	0.0
244	0x00000000	0.0
245	0x00000000	0.0
246	0x00000000	0.0
247	0x00000000	0.0
248	0x00000000	0.0
249	0x00000000	0.0
250	0x00000000	0.0
251	0x00000000	0.0
252	0x00000000	0.0
253	0x00000000	0.0
254	0x00000000	0.0
255	0x00000000	0.0

conv1.bias f4 [30]
0	0xbdb985f9	-0.090587564
1	0xbdb994c4	-0.09061578
2	0xbbeb2ee0	-0.007177219
3	0xbc6d1ce0	-0.014472216
4	0x3daf982e	0.08573948
5	0x3dabb766	0.0838459
6	0x3da058b6	0.0782942
7	0xbd58a23c	-0.052889094
8	0xbdb9a5cc	-0.09064826
9	0xbdddd20b	-0.10831078
10	0x3d2b2bd8	0.04178986
11	0xbdd51720	-0.10404801
12	0xbdec1222	-0.11526896
13	0xbd6f06fd	-0.058356274
14	0xbdc7a9c9	-0.09749181
15	0xbd3a63ce	-0.045505337
16	0xbd94e078	-0.072693765
17	0xbd72a5cb	-0.059240144
18	0x3de0d470	0.10978019
19	0xbcb241f0	-0.021759957
20	0x3dc42be8	0.09578687
21	0x3b27e700	0.0025619864
22	0xbc734808	-0.014848717
23	0xbd0a79d0	-0.033807576
24	0xbda90b53	-0.08254113
25	0xbdbe0063	-0.092774175
26	0x3da3beea	0.07995398
27	0xbd11bfb2	-0.035583206
28	0xbde690d7	-0.11258095
29	0x3dd906f4	0.10597029

conv2.weight f4 [16, 30, 3, 3]
0	0x3d827a0a	0.06370933
1	0xbabcddc0	-0.0014409348
2	0x3de8b7da	0.11363192
3	0xbde2f779	-0.11082358
4	0xbd77961d	-0.060445894
5	0x3d23cf10	0.039992392
6	0x3d972a0a	0.07381065
7	0xbd4a7cea	-0.049435534
8	0x3d453ea4	0.048155442
9	0xbd87d121	-0.06631685
10	0xbd9552fe	-0.0729122
11	0x3d86d354	0.065832764
12	0xbbf03570	-0.007330589
13	0xbdb46caa	-0.088097885
14	0xbb989440	-0.0046563447
15	0x3dd8fd0e	0.10595141
16	0x3ce12938	0.027485475
17	0xbcc55c68	-0.024091914
18	0xbcb2a718	-0.021808192
19	0xbd92f028	-0.071747124
20	0x3d8c3e7e	0.06847857
21	0x3b025fc0	0.0019893497
22	0xbd7ebd1c	-0.062192068
23	0x3be494a0	0.0069757253
24	0x3d186a10	0.037210524
25	0x3ba70a20	0.0050976425
26	0xbc214f50	-0.00984557
27	0xbde7c414	-0.11316696
28	0xbb6dd620	-0.0036290959
29	0xbd1dbf36	-0.03851243
30	0xbaca0c00	-0.0015414953
31	0xbd977398	-0.07395095
32	0x3d3a0c80	0.045422077
33	0xbd98a6d6	-0.074536964
34	0xbd1f56a4	-0.038900986
35	0xbd62b2cc	-0.055346295
36	0xbd783cfc	-0.060605034
37	0x3ae0d040	0.0017151907
38	0xbd5b6a82	-0.05356837
39	0xbd557128	-0.052109867
40	0x3c4fe220	0.01268819
41	0x3d4f3f08	0.05059722
42	0xbd6aa050	-0.057281792
43	0x3d836f32	0.06417693
44	0x3d124e4c	0.0357192
45	0x3dbe575e	0.09294008
46	0x3c3ed150	0.011646584
47	0x3dca4d60	0.09878039
48	0xbdde2bec	-0.10848221
49	0x3d0fa9c4	0.03507401
50	0xbdd3de76	-0.103451654
51	0x3d5079ac	0.050897285
52	0xbd3d2c66	-0.04618492
53	0xbcca3090	-0.02468136
54	0x3dd0d356	0.10196559
55	0x3de6d160	0.11270404
56	0xbcf74d6c	-0.030188285
57	0xbd8ded19	-0.069299884
58	0x3d86ba70	0.06578529
59	0xbd5a6cea	-0.053326525
60	0xbd67e250	-0.056612313
61	0xbdb9693f	-0.09053277
62	0x3df50226	0.119633004
63	0x3be9f720	0.0071400553
64	0x3cc0d290	0.023537904
65	0xbd8f5d62	-0.07000233
66	0x3d65ddf4	0.056119874
67	0xbde9c97b	-0.114153825
68	0xbd0f2590	-0.03494793
69	0xbc96b684	-0.018397577
70	0x3d9119e4	0.07085016
71	0xbc37c5b8	-0.011216573
72	0x3c8da0e8	0.01728864
73	0x3dbc8634	0.09205285
74	0x3d2d9ea0	0.042387605
75	0x3dc84d14	0.097803265
76	0xbd280ace	-0.04102593
77	0x3d98672a	0.07441552
78	0xbc98dcc8	-0.018659964
79	0xbc0ee588	-0.008721717
80	0x3cd2be18	0.02572541
81	0x3dedb3fc	0.11606595
82	0x39ffab00	0.00048764795
83	0xbc52a670	-0.012857065
84	0xbd40ff92	-0.04711873
85	0xbd9bbcd1	-0.07604373
86	0x3d8d9f7e	0.06915186
87	0xbccc9edc	-0.024978094
88	0xbd2619a8	-0.04055181
89	0x3cd615f8	0.026133522
90	0x3ca85a68	0.020550922
91	0xbca016f4	-0.019542195
92	0x3dce0caa	0.10061009
93	0x3d96dc16	0.07366197
94	0x3cf046a8	0.029330567
95	0xbd6997fe	-0.057029717
96	0xbd4c4722	-0.049872525
97	0x3dd66386	0.10468201
98	0x3ccb99e8	0.024853662
99	0xbddfd3aa	-0.109290436
100	0xbc84c1a0	-0.016205609
101	0x3cddded8	0.0270838
102	0x3d051db4	0.03249903
103	0x3dd12e6a	0.10213931
104	0x3b7d10a0	0.0038614646
105	0xbc6db248	-0.014507838
106	0x3dae54f2	0.08512296
107	0xbc91a918	-0.017780825
108	0x3d1ededc	0.038786754
109	0xbdb8ac5c	-0.0901725
110	0xbd2e1e34	-0.042509273
111	0xbdb9f73e	-0.09080361
112	0x3c442260	0.011971086
113	0xbdc14ba1	-0.09438253
114	0x3dbbd0e8	0.09170705
115	0xbd5aa12c	-0.05337636
116	0xbda8f97c	-0.0825071
117	0x3bed6580	0.0072447658
118	0xbd686082	-0.056732662
119	0xbd939a73	-0.07207193
120	0x3db48a32	0.08815421
121	0x3d1ea9cc	0.03873615
122	0x3ca19878	0.019726023
123	0x3d727960	0.059197783
124	0xbd24c5b0	-0.040227592
125	0x3c4cfad0	0.01251097
126	0x3dede8e6	0.116166875
127	0xbd5550e8	-0.05207911
128	0x3d46afd8	0.04850754
129	0x3dcf50a0	0.101228
130	0xbc89d3d4	-0.01682464
131	0x3dcaded6	0.09905784
132	0xbd018a70	-0.031626165
133	0xbcc4e404	-0.024034508
134	0x3cfb67a0	0.03068906
135	0xbc987ad0	-0.018613249
136	0xbd017c42	-0.031612642
137	0xbcc04424	-0.023469992
138	0x3cc9d2c0	0.024636626
139	0xbd882f84	-0.06649688
140	0xbdbc493a	-0.09193654
141	0xbdc138e4	-0.09434679
142	0x3df28950	0.118425965
143	0x3b53a600	0.0032294989
144	0x3d5cbc88	0.053890735
145	0xbdec2515	-0.1153051
146	0xbc905020	-0.017616332
147	0xbdc0c9ec	-0.094135135
148	0xbc2a5430	-0.010396048
149	0x3ddba0fa	0.10724063
150	0x3db2eece	0.08736955
151	0xbd320b88	-0.04346803
152	0xbd85eeb2	-0.06539668
153	0xbdc9bcc8	-0.0985046
154	0xbd732ae1	-0.059367064
155	0x3d28a3dc	0.041171893
156	0xbd91fe17	-0.07128542
157	0x3d87853a	0.06617208
158	0xbd311f64	-0.043242827
159	0x3de46c3e	0.11153458
160	0xbcee97f0	-0.029125184
161	0xbcaf8304	-0.021424778
162	0x3d915a94	0.070973545
163	0x3dacd614	0.0843927
164	0x3db201fa	0.08691783
165	0x3db29a54	0.08720842
166	0xbde91e6c	-0.11382756
167	0x3d87f388	0.06638247
168	0xbd80f2ec	-0.06296334
169	0x3daeebfe	0.08541106
170	0x3dbfd56a	0.093668774
171	0xbc2477f0	-0.010038361
172	0x3d2a06b0	0.041510284
173	0x3cd0a5a8	0.025469616
174	0x3d58a7b4	0.05289431
175	0x3da55b80	0.08074093
176	0x3d0eb830	0.034843624
177	0xbd252f8c	-0.040328547
178	0x3b9b27a0	0.0047349483
179	0x3c63ca30	0.013903186
180	0xbdcbb8d4	-0.099473625
181	0x3d2213c0	0.039569616
182	0xbda0a505	-0.07843975
183	0x3d9c5bac	0.076346725
184	0x3ddcf0ea	0.10788138
185	0x3c863940	0.01638472
186	0x3dce7116	0.10080163
187	0x3b2a29e0	0.00259649
188	0x3d9b0aec	0.075704426
189	0x3d75ffa8	0.060058266
190	0xbdcd75bf	-0.10032224
191	0xbdc5be2d	-0.09655414
192	0xbcecc5cc	-0.02890291
193	0x3d444540	0.047917604
194	0xbcb78368	-0.022401527
195	0xbcc7ffa8	-0.024413899
196	0x3d9516ce	0.0727974
197	0x3ddceffc	0.10787961
198	0x3d50c8a0	0.05097258
199	0x3d122770	0.03568214
200	0x3d7a9e98	0.061186403
201	0x3c863b18	0.0163856
202	0xbdde0b27	-0.10841971
203	0xbdf496ca	-0.11942823
204	0xbde5a977	-0.112139635
205	0xbdd8d06b	-0.105866276
206	0x3dbabc08	0.09117895
207	0xbc0b5108	-0.008503206
208	0xbdaae6b2	-0.08344783
209	0x3cd6db98	0.026227757
210	0x3a25d100	0.0006325394
211	0xbd93eeb0	-0.072232604
212	0xbdebebc7	-0.1151958
213	0x3ce44b70	0.027868003
214	0x3af15980	0.0018413514
215	0xbd2efe10	-0.04272276
216	0xbd897710	-0.067121625
217	0xbd027a42	-0.031854875
218	0x3dd654ec	0.10465416
219	0xbdc55225	-0.096348085
220	0xbd436690	-0.047705233
221	0xbd1ce5de	-0.038305156
222	0x3de1fc30	0.11034429
223	0x3bf063a0	0.007336095
224	0x3da8150a	0.08207138
225	0xbc43bc40	-0.011946738
226	0xbc9a488c	-0.018833421
227	0x3d8c1fa6	0.06841974
228	0xbd3db92e	-0.04631918
229	0x3d92a0b8	0.07159561
230	0x3dd7add8	0.10531205
231	0x3d48c164	0.049012557
232	0x3d982b3e	0.07430123
233	0xbdbf119c	-0.093295306
234	0x3de3775a	0.11106749
235	0xbd94ab3e	-0.07259224
236	0x3d8ab4d4	0.067727715
237	0x3d19ed34	0.03757973
238	0x3c105290	0.008808747
239	0x3cff7090	0.031181604
240	0xbdf1e57a	-0.11811347
241	0x3deb7816	0.11497514
242	0xbbfe40c0	-0.0077591836
243	0x3ddc3464	0.1075218
244	0x3b412880	0.0029473603
245	0xbd49001a	-0.049072362
246	0x3d9a5158	0.07535046
247	0xbb164100	-0.0022926927
248	0xbd9c93e4	-0.076453954
249	0x3c77d5a0	0.015126616
250	0xbdf56856	-0.11982791
251	0xbd983e63	-0.07433774
252	0xbdc85ae6	-0.097829625
253	0x3bca9ea0	0.0061834604
254	0xbd87bb85	-0.066275634
255	0xbb2c1b00	-0.002626121

conv2.bias f4 [16]
0	0xbd1b42ed	-0.037905622
1	0xbb896c08	-0.0041937865
2	0xbcc0c3c0	-0.02353084
3	0xbd087d52	-0.03332264
4	0xbca46ef6	-0.020072442
5	0x3d20a81e	0.03922283
6	0x3ca4b5f8	0.0201063
7	0xbbb7ec88	-0.0056129135
8	0xbd483482	-0.0488782
9	0xbd0a183a	-0.03371451
10	0x3d0d91e8	0.034562975
11	0xbce8e322	-0.028428618
12	0xbd4036db	-0.046927314
13	0xbd08b897	-0.033379164
14	0xbca6b44a	-0.02034964
15	0xbcdd8e48	-0.027045384

conv3.weight f4 [16, 16, 3, 3]
0	0x3e03933e	0.12849137
1	0xbd59a0f8	-0.053132027
2	0xbe1217da	-0.14266911
3	0x3e0eb3f0	0.13935828
4	0x3d382db8	0.044965476
5	0x3d031754	0.03200467
6	0xbd82bc87	-0.06383615
7	0x3e05c0a2	0.13061765
8	0x3df32288	0.11871821
9	0xbdef4ed3	-0.116849564
10	0x3d81ab0a	0.06331451
11	0x3e077c54	0.13231021
12	0xbde068ac	-0.109574646
13	0x3d2ae548	0.041722566
14	0xbd7b7242	-0.06138826
15	0x3dd21218	0.10257357
16	0x3dcae36a	0.09906657
17	0x3d983270	0.07431495
18	0xbd1c9fb6	-0.03823825
19	0x3def7cf0	0.11693752
20	0xbd0d47da	-0.03449235
21	0x3dc4125c	0.09573814
22	0x3d8bbece	0.068235025
23	0xbdf33d99	-0.11876983
24	0xbdba88b4	-0.09108105
25	0xbc3eeea0	-0.011653572
26	0xbdf2ab3d	-0.11849067
27	0xbd1878aa	-0.03722445
28	0x3da00e8e	0.07815276
29	0x3e05a290	0.13050294
30	0xbc3b0a10	-0.011415973
31	0xbd0d9082	-0.03456164
32	0xbddee9ce	-0.108844385
33	0x3d33748c	0.04381232
34	0x3ca931c8	0.02065362
35	0x3d7c4e7c	0.061598286
36	0xbdfa06f8	-0.122083604
37	0x3be6f5e0	0.0070483536
38	0xbd82a686	-0.06379418
39	0xbda6d09d	-0.081452586
40	0x3d92e8fa	0.07173343
41	0xbdf2133c	-0.11820075
42	0xbdb0a933	-0.08626022
43	0x3dd9ab20	0.10628343
44	0xbdc14fd9	-0.09439058
45	0x3dc724a6	0.09723787
46	0xbd57c71a	-0.052680112
47	0xbdca1934	-0.09868088
48	0xbc18ba10	-0.0093217045
49	0xbdb5db81	-0.08879758
50	0x3d1b129c	0.037859544
51	0x3dd25b2e	0.102712974
52	0xbddffb35	-0.10936586
53	0xbdc80c1b	-0.09767934
54	0xbccd5fdc	-0.025070123
55	0x3b9ba280	0.004749596
56	0x3dffee38	0.124966085
57	0x3de83074	0.11337367
58	0xbd9ff475	-0.07810298
59	0x3dc0e028	0.094177544
60	0x3dab113c	0.083528966
61	0xbde26fec	-0.11056504
62	0x3db6fb0a	0.08934601
63	0x3e0e7a04	0.13913733
64	0xbd0a651e	-0.03378784
65	0x3dff2dac	0.12459883
66	0x3e0c3bfe	0.1369476
67	0x3d148010	0.036254942
68	0x3b4c7080	0.0031194985
69	0x3df55530	0.11979139
70	0x3dcc5ce0	0.09978652
71	0x3e0ca540	0.13734913
72	0xbdbd8f41	-0.09255839
73	0x3d49a2ec	0.04922764
74	0x3db470ec	0.08810601
75	0xbdc06be5	-0.09395579
76	0x3cc92420	0.024553359
77	0xbda08e47	-0.07839637
78	0xbdd50b6e	-0.10402571
79	0x3e11333e	0.14179704
80	0xbdefa0e2	-0.11700608
81	0xbe07478d	-0.13210888
82	0x3df62b38	0.12019962
83	0x3daee052	0.085388795
84	0x3d04e34c	0.03244333
85	0x3dd5c60e	0.104381666
86	0x3b8f26c0	0.004368633
87	0xbd3cd6be	-0.04610323
88	0xbcaed744	-0.021342881
89	0x3cdd5558	0.027018234
90	0xbe0d47ed	-0.13796969
91	0xbe0619e5	-0.13095815
92	0xbd5482a2	-0.051882394
93	0x3c863828	0.0163842
94	0x3dc3b09a	0.095551684
95	0xbd8b49ad	-0.06801162
96	0xbdf922c2	-0.12164833
97	0xbe04b6ac	-0.12960309
98	0xbb1ed140	-0.002423361
99	0xbdb90093	-0.09033313
100	0xbd01e85a	-0.03171573
101	0xbdbebf64	-0.093138486
102	0x3d853768	0.065047085
103	0xbd4549b2	-0.048165984
104	0xbdce92cb	-0.10086592
105	0x3d3abc88	0.045589954
106	0xbbb78fc0	-0.005601853
107	0x3db87a80	0.0900774
108	0x3bff8800	0.007798195
109	0x3d74a714	0.05972965
110	0x3d457ed8	0.04821667
111	0xbda55a6e	-0.08073889
112	0x3dec3ae4	0.1153467
113	0x3cd619a0	0.026135266
114	0xbcaf173c	-0.021373384
115	0x3ca75020	0.020423949
116	0x3e057dba	0.13036242
117	0x3dda04a0	0.106454134
118	0x3dfa28c4	0.12214807
119	0xbda82dd9	-0.0821187
120	0xbd109d60	-0.035306334
121	0x3d03a330	0.03213805
122	0xbca0deb0	-0.019637436
123	0xbcde98b8	-0.027172431
124	0x3dde6dd8	0.10860795
125	0xbd9e914f	-0.07742559
126	0xbd87ba7d	-0.06627367
127	0x3ca9dd30	0.020735353
128	0xbd8773fe	-0.06613921
129	0xbda7ee7a	-0.08199783
130	0xbdec5716	-0.11540048
131	0x3dc729a6	0.09724741
132	0xbd9347ae	-0.07191406
133	0xbc944b98	-0.018102452
134	0x3dc02fa6	0.09384088
135	0xbe0dbbd2	-0.13841179
136	0xbaf6f200	-0.0018840432
137	0xbd887e03	-0.0666466
138	0xbdd48eb2	-0.103787795
139	0x3c93be88	0.018035188
140	0x3d35e62c	0.044408962
141	0x3dbfc4cc	0.09363708
142	0x3e1384e6	0.14406165
143	0x3d419af8	0.04726693
144	0xbb2bebc0	-0.0026233047
145	0xbd9c5106	-0.076326415
146	0xbd2623a4	-0.040561333
147	0xbe0693cc	-0.13142318
148	0xbe0759ca	-0.13217846
149	0xbde24ee1	-0.11050201
150	0x3dcee83c	0.10102889
151	0x3d7b2d40	0.06132245
152	0x3e078b4e	0.13236734
153	0x3dcbce40	0.099514484
154	0x3dcde4b0	0.10053384
155	0x3cf4b610	0.02987197
156	0x3d958e76	0.07302563
157	0x3d542090	0.051788867
158	0xbdeb0b74	-0.11476794
159	0xbdea51b6	-0.114413664
160	0x3ded1484	0.11576179
161	0x3db95628	0.09049636
162	0xbd18bff8	-0.03729245
163	0xbda8b26e	-0.08237158
164	0xbdcf678c	-0.10127172
165	0xbde2e7ea	-0.1107939
166	0xbd3d09f8	-0.046152085
167	0x3c45f740	0.012082875
168	0x3b89bb80	0.00420326
169	0x3d59b9d8	0.05315575
170	0x3c8fef90	0.017570287
171	0x3d1863b8	0.037204474
172	0x3ddd9520	0.10819459
173	0x3d0442ac	0.032290146
174	0xbc1a1170	-0.0094035715
175	0x3d919e14	0.07110229
176	0x3d4cc0f8	0.049988717
177	0x3d7dfadc	0.062006816
178	0xbd1f952e	-0.03896063
179	0xbe135c88	-0.14390767
180	0xbd4ffe6a	-0.050779738
181	0x3def6884	0.11689857
182	0xbd4a72a4	-0.049425736
183	0xbd944b45	-0.07240919
184	0xbd7cbd4c	-0.061703965
185	0x3db56026	0.088562295
186	0x3e0875de	0.13326213
187	0xbe0cadf0	-0.13738227
188	0xbd4ca128	-0.049958378
189	0x3dea5cf0	0.11443508
190	0x3d03d5f4	0.032186463
191	0x3dbc1648	0.09183937
192	0xbde9b5ef	-0.11411654
193	0x3db08cae	0.086205825
194	0xbd938e3e	-0.07204865
195	0xbdb81ef5	-0.089902796
196	0xbd6b932c	-0.0575134
197	0xbdd80570	-0.10547912
198	0x3d2fe494	0.0429426
199	0x3dc67cec	0.09691796
200	0xbdc0bf02	-0.09411432
201	0x3d53a324	0.051669255
202	0xbddb855c	-0.10718796
203	0x3da26a04	0.07930377
204	0xbc4bdc70	-0.012442693
205	0x3c2012d0	0.00977011
206	0xbde9a0bc	-0.11407611
207	0x3d587a94	0.052851275
208	0x3d60c944	0.05487944
209	0xbd50d3f2	-0.050983377
210	0xbd7f1c38	-0.06228277
211	0x3de76924	0.11299351
212	0x3dd25daa	0.10271771
213	0xbd96856c	-0.07349667
214	0x3d525198	0.051347345
215	0xbd7b9aa4	-0.061426774
216	0xbe0b4ef8	-0.13604343
217	0xbbcf0ee0	-0.006318912
218	0xbdfb69fa	-0.12276073
219	0xbd8ba583	-0.06818678
220	0xbc311e00	-0.010810375
221	0xbdbd1187	-0.09231859
222	0x3dabe684	0.08393577
223	0xbd2eec06	-0.04270556
224	0xbde6f1ec	-0.11276612
225	0x3cc75cf0	0.024336308
226	0x3d119480	0.03554201
227	0xbd1e094c	-0.038583085
228	0xbddf68e7	-0.109086804
229	0x3d838d14	0.06423393
230	0xbd477500	-0.048695564
231	0xbd72d852	-0.05928833
232	0x3def282c	0.11677584
233	0xbda67f6f	-0.08129775
234	0x3da8562e	0.082195625
235	0x3ac76200	0.0015211701
236	0xbd00001c	-0.031250104
237	0xbdb893fa	-0.09012599
238	0x3e0f02f4	0.1396597
239	0x3c677f10	0.014129415
240	0x3ca8aeb8	0.020591125
241	0xbdeb9184	-0.11502364
242	0x3dd18db6	0.10232107
243	0xbabf2e80	-0.0014586002
244	0x3d83c866	0.06434707
245	0x3dc87cec	0.09789452
246	0x3d0d0488	0.03442815
247	0x3dacf584	0.08445266
248	0xbd89795a	-0.06712599
249	0x3d7796d4	0.060446575
250	0x3d71afd8	0.05900559
251	0x3d95010c	0.0727559
252	0xbd44a550	-0.048009217
253	0x3da5750e	0.08078967
254	0x3e010c52	0.12602356
255	0xbd907fd0	-0.07055628

conv3.bias f4 [16]
0	0x3c7d2a78	0.01545202
1	0xbc1627a0	-0.009164721
2	0x3c618c78	0.0137664005
3	0xbd3dbfd0	-0.046325505
4	0xbd930d10	-0.07180226
5	0xbc0e7b80	-0.008696437
6	0x3d68900e	0.056778006
7	0x3d9472cd	0.07248459
8	0x3d877169	0.06613428
9	0x3b9077f0	0.004408829
10	0x3d80aab9	0.06282563
11	0xbd0b5ffb	-0.03402708
12	0x3d7841ea	0.060609736
13	0x3c53b1c0	0.012920797
14	0xbd814cb0	-0.06313455
15	0xbcdfe660	-0.027331531

conv4.weight f4 [16, 16, 3, 3]
0	0x3c90f630	0.017695516
1	0xbe010ff2	-0.12603739
2	0x3daa07a8	0.083022416
3	0x3d78a058	0.06069979
4	0x3cf29b00	0.029614925
5	0xbcfd3730	-0.030910105
6	0x3e064d5e	0.1311545
7	0xbdf43d6e	-0.11925779
8	0x3d9b15fc	0.075725526
9	0x3e014080	0.12622261
10	0x3d4f688c	0.050636813
11	0x3df25d5c	0.11834213
12	0xbdb4f9a9	-0.088366814
13	0x3e0490d0	0.12945867
14	0x3dd967b0	0.1061548
15	0xbd7860be	-0.060639136
16	0x3dfcb454	0.12339082
17	0xbd861399	-0.06546707
18	0xbdf9e3dc	-0.12201664
19	0x3e0a74b6	0.13521084
20	0x3d389a10	0.0450688
21	0x3da4f72e	0.08054958
22	0x3d0fe9ac	0.035134956
23	0x3caa94b0	0.020822853
24	0x3d44ed64	0.048077956
25	0x3d5bdf78	0.053679913
26	0xbdc4db92	-0.09612192
27	0x3dc151fc	0.094394654
28	0x3c1e0b20	0.009646207
29	0x3d8075ae	0.062724456
30	0xbe00b2fb	-0.12568276
31	0xbdb722c1	-0.08942176
32	0xbd847dfe	-0.064693436
33	0xbdf1ecae	-0.11812721
34	0x3de6a7d4	0.112624794
35	0x3cb92390	0.022599965
36	0xbdd84aa6	-0.10561113
37	0xbdb6833a	-0.08911748
38	0xbd07b378	-0.03313014
39	0x3df93830	0.1216892
40	0xbd73d4d6	-0.059529148
41	0x3e056a42	0.13028815
42	0x3da1fdd2	0.079097405
43	0xbdd48ed0	-0.10378802
44	0xbe04e4d2	-0.12977913
45	0x3d28b5a8	0.041188866
46	0x3dca02ca	0.09863813
47	0xbceb63b4	-0.028734066
48	0xbe01a7d6	-0.1266168
49	0x3d5bfc0c	0.053707168
50	0xbd44767a	-0.04796455
51	0xbd8c0ada	-0.06838007
52	0x3c491250	0.012272432
53	0x3ddd0288	0.107914984
54	0xbe04e9c0	-0.12979794
55	0x3d050244	0.032472864
56	0xbbe28f80	-0.006914079
57	0xbdcadcac	-0.09905371
58	0x3df7c6c0	0.120984554
59	0xbcb29d48	-0.021803513
60	0x3e0d6182	0.13806728
61	0xbdd25bf5	-0.10271446
62	0x3c100770	0.008790836
63	0xbd1cad1e	-0.038251035
64	0x3cf816d8	0.03028433
65	0xbe0e7e71	-0.13915421
66	0x3d2fd8bc	0.042931303
67	0xbd9d7f3a	-0.07690282
68	0x3da58cd6	0.08083503
69	0xbd7e139c	-0.06203042
70	0xba9e3380	-0.0012069792
71	0xbde4c294	-0.11169925
72	0xbdbde3d4	-0.092719704
73	0x3d8ca526	0.06867437
74	0x3e03e88c	0.12881678
75	0x3df65b84	0.12029174
76	0xbdf31a58	-0.11870259
77	0xbd4306f6	-0.04761406
78	0x3dcb033e	0.09912728
79	0x3d68cdec	0.056837007
80	0x3da52eb2	0.08065547
81	0x3e05f590	0.13081956
82	0xbd224970	-0.039620817
83	0xbd469752	-0.048484154
84	0x3c3e1a40	0.011602938
85	0xbe06109b	-0.13092272
86	0xbcfef66c	-0.031123362
87	0x3e0bf3a4	0.1366716
88	0xbc431490	-0.011906758
89	0xbd58e0d0	-0.052948773
90	0xbd66e630	-0.056371868
91	0xbcebf3cc	-0.028802775
92	0xba1b6f00	-0.0005929321
93	0xbe02187c	-0.12704653
94	0x3de0fc98	0.109856784
95	0xbe0ea317	-0.13929401
96	0xbd91161d	-0.07084296
97	0xbdf271d2	-0.11838116
98	0xbdabf332	-0.08395995
99	0x3d3080b8	0.043091506
100	0xbdb76ef2	-0.08956708
101	0xbd685990	-0.05672604
102	0xbdcf84a6	-0.101327226
103	0xbbd58400	-0.0065159798
104	0x3e042dc0	0.12908077
105	0x3d79f2c4	0.061022535
106	0x3db43176	0.087984964
107	0xbdea7f1f	-0.11450028
108	0xbd49c5ec	-0.04926102
109	0x3d86599e	0.06560062
110	0xbc614610	-0.013749614
111	0x3de59b74	0.11211291
112	0xbdd04bda	-0.101707175
113	0xbe0dbf97	-0.13842617
114	0xbde4c538	-0.11170429
115	0xbd9400e6	-0.07226734
116	0x3dcf81ce	0.1013218
117	0xbd4e2976	-0.05033251
118	0xbd91015b	-0.07080337
119	0xbbb86600	-0.0056273937
120	0x3da3d12c	0.07998881
121	0xbe12f109	-0.1434976
122	0xbd080d52	-0.03321583
123	0xbd59ab5c	-0.053141937
124	0xbdbdf8eb	-0.09275993
125	0xbd33396e	-0.04375594
126	0xbc5e1de0	-0.013556927
127	0xbe0363c9	-0.12831034
128	0x3de77c30	0.11302984
129	0x3d3cdc88	0.046108752
130	0x3ba97f60	0.005172655
131	0xba21a500	-0.00061662495
132	0x3cbfee78	0.02342914
133	0x3e08769e	0.13326499
134	0x3ce4d648	0.027934209
135	0x3ba36480	0.004986346
136	0xbb6ada00	-0.0035835505
137	0xbdc8cb07	-0.098043494
138	0xbe118e0f	-0.14214347
139	0xbce1be6c	-0.02755662
140	0xbe05bb1a	-0.13059655
141	0x3d7404d4	0.059574917
142	0xbda55125	-0.08072118
143	0x3c960800	0.018314362
144	0x3d793704	0.060843483
145	0xbda3f008	-0.08004767
146	0xbcfcc324	-0.030854769
147	0xbdefbcf2	-0.1170596
148	0xbce86678	-0.028369173
149	0x3df04538	0.117319524
150	0x3d69de7c	0.057096943
151	0x3dc9ec6c	0.09859547
152	0xbda222f9	-0.07916827
153	0xbe03ab9a	-0.1285843
154	0xbd86f3ad	-0.06589446
155	0xbd74de0a	-0.059782065
156	0x3dafda7e	0.08586596
157	0xbd987b05	-0.07445339
158	0x3dbe6166	0.09295921
159	0xbde2d3cc	-0.11075553
160	0x3d271774	0.04079385
161	0x3c9e1d58	0.019301102
162	0x3dc7cbec	0.09755692
163	0x3dc29dd0	0.095027566
164	0xbde3e02a	-0.1112674
165	0x3e035422	0.12825063
166	0x3d10fc08	0.035396606
167	0x3e0f260a	0.13979355
168	0x3d752ebc	0.059859022
169	0xbdfcaa11	-0.12337125
170	0x3d1522c4	0.03641011
171	0xbbc79fe0	-0.0060920566
172	0x3d8de21e	0.06927894
173	0xbd69baa6	-0.057062767
174	0xbb3b8980	-0.0028615892
175	0xbdec0506	-0.11524396
176	0xbcc557b4	-0.024089672
177	0xbd9d1296	-0.076695606
178	0x3d2f59e8	0.04281035
179	0xbdec0f55	-0.11526362
180	0x3ac7bf80	0.0015239567
181	0x3c8f4658	0.017489597
182	0x3b7e4380	0.0038797557
183	0x3e0fb0d8	0.14032304
184	0xbdff3929	-0.12462074
185	0x3dcfcc34	0.101463705
186	0xbe133195	-0.14374383
187	0xbd765bd4	-0.060146168
188	0xbd845476	-0.06461422
189	0xbd98e10d	-0.074648
190	0x3d3e044c	0.046390817
191	0xbd73756a	-0.059438147
192	0xbd30725a	-0.043077804
193	0x3debf6d8	0.11521691
194	0x3d30a924	0.043130055
195	0x3d2b5e68	0.04183808
196	0xbd233c60	-0.0398525
197	0x3d283edc	0.041075572
198	0xbd7eda3e	-0.06221985
199	0x3d10bb6c	0.03533499
200	0xbdfeefc1	-0.12448073
201	0xbe01fc89	-0.12693991
202	0x3d9c35d0	0.076274514
203	0x3da283fc	0.0793533
204	0x3dba6376	0.09101002
205	0xbd8b2426	-0.06794004
206	0xbcb5a71c	-0.02217441
207	0xbdb54d7c	-0.088526696
208	0xbda8724f	-0.08224928
209	0xba90d300	-0.0011049211
210	0xbce48728	-0.027896479
211	0x3dae235a	0.085028365
212	0x3ded2fc4	0.11581376
213	0x3decfc40	0.1157155
214	0xbd39b16e	-0.045335226
215	0x3b2fb240	0.0026809126
216	0xbd5526d6	-0.05203899
217	0x3cdb2a18	0.02675347
218	0xbe0d849e	-0.1382012
219	0xbce672f4	-0.028130986
220	0xbc5e1d20	-0.013556749
221	0x3d04db30	0.032435596
222	0x3d98945e	0.07450174
223	0xbc587310	-0.013211027
224	0xbd8ccd42	-0.06875087
225	0x3e049c4e	0.1295025
226	0xbd021be0	-0.031764865
227	0xbcdc0294	-0.026856698
228	0xbda99278	-0.0827989
229	0x3d8bc8e6	0.06825428
230	0x3da68e70	0.081326365
231	0x3da1bd86	0.07897477
232	0x3caa91b8	0.020821437
233	0xbdcd014d	-0.10010014
234	0x3e0897ac	0.13339108
235	0x3dc8621a	0.097843364
236	0x3db7a554	0.08967081
237	0x3d7eb150	0.062180817
238	0x3cbee820	0.023304045
239	0x3d9b4aaa	0.075826004
240	0xbd164a30	-0.036691844
241	0xbe110d97	-0.1416534
242	0xbb42a600	-0.0029700994
243	0xbddbbde1	-0.10729576
244	0x3deb821c	0.11499426
245	0xbe01773b	-0.12643139
246	0xbd696104	-0.056977287
247	0x3d20fab8	0.039301604
248	0x3d82c11a	0.063844875
249	0x3e13a580	0.14418602
250	0x3df20318	0.11816996
251	0x3cc9a870	0.02461645
252	0x3dea66c4	0.11445382
253	0x3bdbea20	0.0067112595
254	0xbd84c31f	-0.06482529
255	0x3af9a400	0.0019046068

conv4.bias f4 [16]
0	0xbd3b163e	-0.04567551
1	0x3b29d0a0	0.0025911704
2	0x3d9313f5	0.07181541
3	0xbd8b208b	-0.067933165
4	0xbd277580	-0.04088354
5	0xbc737398	-0.014859103
6	0xbd9f1676	-0.07767956
7	0xbd931ff2	-0.071838275
8	0x3ad36040	0.0016126707
9	0xbc2833a8	-0.010266222
10	0x3d5f6722	0.054541714
11	0xbc11dde0	-0.008902997
12	0x3d6f3a92	0.058405466
13	0x3d420ae2	0.04737366
14	0x3d851f71	0.065001376
15	0xbc8d6b4c	-0.017263077

conv5.weight f4 [16, 16, 3, 3]
0	0x3ddeecb0	0.10884988
1	0x3d062278	0.032747716
2	0x3dbc423e	0.09192322
3	0x3db96866	0.090531155
4	0x3da0ed5c	0.07857773
5	0x3dab8f20	0.08376908
6	0xbdfcfa0c	-0.1235238
7	0x3d0f8804	0.035041824
8	0xbccd92b4	-0.025094368
9	0x3d1dc644	0.03851916
10	0xbd924c1b	-0.07143422
11	0x3e12ab92	0.14323261
12	0xbd2eab82	-0.04264403
13	0x3d821012	0.063507214
14	0x3dfd6c44	0.12374166
15	0xbdf7deda	-0.121030524
16	0xbd5e45ba	-0.054265715
17	0xbded224a	-0.11578806
18	0x3e0118e0	0.12607145
19	0xbdb15b08	-0.08659941
20	0x3ddb90f0	0.10721004
21	0xbd0b0ec0	-0.033949614
22	0xbe0d3018	-0.13787878
23	0xbda2a77a	-0.079421
24	0xbca78410	-0.020448714
25	0x3e031530	0.12801051
26	0xbe0b114d	-0.13580818
27	0xbd9b3144	-0.07577756
28	0x3dd092e0	0.10184264
29	0xbd57f0ee	-0.052720003
30	0xbd81a72e	-0.06330715
31	0x3d41d080	0.04731798
32	0xbd9b7389	-0.07590396
33	0xbda8595e	-0.082201704
34	0x3e043496	0.12910685
35	0xbd23a46e	-0.039951734
36	0xbceea5b8	-0.029131755
37	0xbe00f264	-0.12592465
38	0x3cc84c98	0.024450585
39	0xbced99b8	-0.029003963
40	0x3d9fe5c8	0.07807499
41	0x3c9888a8	0.01861985
42	0x3dcaf974	0.09910861
43	0x3dee46d4	0.11634603
44	0xbdd7f45d	-0.105446555
45	0xbc930e20	-0.017951071
46	0x3d9c1672	0.076214686
47	0x3df497ec	0.11943039
48	0x3dd4c9f6	0.103900835
49	0x3e0e4a5a	0.1389555
50	0xbe0e319f	-0.13886116
51	0xbd54ad24	-0.051922932
52	0xbc9ede5c	-0.019393139
53	0x3de4b018	0.111664
54	0x3dfe119c	0.124057025
55	0xbe1029b4	-0.14078408
56	0xbcfd9bcc	-0.030958079
57	0xbd9da826	-0.076980874
58	0xbdc874e0	-0.09787917
59	0xbdc870ac	-0.097871155
60	0xbdfb9b84	-0.122855216
61	0x3ddc13a8	0.10745937
62	0xbbb035a0	-0.0053774863
63	0x3dcb033a	0.09912725
64	0xbdda88e4	-0.10670641
65	0x3dbc661c	0.09199163
66	0xbbdbee80	-0.006711781
67	0x3ddb26fc	0.10700795
68	0x3d866d70	0.06563842
69	0xbc4bb540	-0.01243335
70	0x3dab84ce	0.0837494
71	0xbd4252f0	-0.047442377
72	0x3cbaa520	0.022783816
73	0x3ca7d170	0.02048561
74	0x3b2a9e00	0.0026034117
75	0xbc667700	-0.014066458
76	0x3df33f10	0.118772626
77	0x3c9a2308	0.018815532
78	0xbdc61b75	-0.09673206
79	0x3da8c310	0.0824033
80	0xbdc4efc4	-0.09616044
81	0x3dc6da84	0.09709647
82	0x3e08ab12	0.13346508
83	0xbd561368	-0.0522646
84	0x3cebd0f0	0.028786153
85	0x3d80e57e	0.06293772
86	0x3d2e66ac	0.042578384
87	0xbdf22c95	-0.118249096
88	0x3e02e126	0.127812
89	0xbdad7b14	-0.08470741
90	0x3d419a7c	0.04726647
91	0xbd215026	-0.039383076
92	0xbdd566de	-0.10420011
93	0x3d383f90	0.044982493
94	0xbd3885dc	-0.045049533
95	0x3d8a26bc	0.06745669
96	0x3cd64968	0.02615805
97	0xbd684c72	-0.05671353
98	0x3cb05ee0	0.021529615
99	0x3e001304	0.12507254
100	0x3d07ad80	0.033124447
101	0xbdff08b0	-0.12452829
102	0xbdcea4b4	-0.100900084
103	0x3dadb55c	0.08481857
104	0xbdd830e8	-0.10556203
105	0x3d243448	0.04008892
106	0x3d56a5ec	0.05240433
107	0x3de9bf1c	0.11413404
108	0x3ddf9934	0.10917893
109	0x3d2f58f4	0.04280944
110	0x3d83b13a	0.06430288
111	0xba912380	-0.0011073202
112	0x3bce9060	0.006303832
113	0x3dc65ed0	0.09686053
114	0xbdc3621e	-0.09540199
115	0xbd924297	-0.07141607
116	0x3cc617d8	0.024181291
117	0xbdd52706	-0.10407834
118	0x3da96e16	0.0827295
119	0x3dcefe4a	0.101070955
120	0xbdac108f	-0.08401596
121	0xbd994685	-0.07484154
122	0xbdaf867a	-0.08570571
123	0x3db8302e	0.089935645
124	0xbd913579	-0.07090277
125	0xbd09b59a	-0.033620454
126	0xbdc48018	-0.095947444
127	0x3d1a2d3c	0.037640795
128	0xbc171f90	-0.009223834
129	0x3d37ea7c	0.044901356
130	0xbca51a30	-0.020154089
131	0x3d73ca70	0.05951923
132	0xbcb8c108	-0.022552982
133	0x3df3cb30	0.11903989
134	0xbd2a4526	-0.04156985
135	0x3def516c	0.11685452
136	0xbb93f320	-0.0045150667
137	0x3c7f5fc0	0.015586793
138	0xbd7a13f8	-0.0610542
139	0xbdc61547	-0.09672027
140	0xbda9d09c	-0.08291742
141	0xbddf4d3e	-0.10903405
142	0x3db062fa	0.08612628
143	0x3d8f13e4	0.06986216
144	0xbc1689f0	-0.00918816
145	0x3d8ea322	0.06964709
146	0x3d632d30	0.055463016
147	0x3dfaf788	0.12254244
148	0x3e023c88	0.12718403
149	0x3e0cb964	0.13742596
150	0xbd729d6a	-0.059232153
151	0x3dfe6ddc	0.12423298
152	0xbe12036d	-0.1425912
153	0x3d58c3f8	0.052921265
154	0xbdafc144	-0.08581784
155	0x3dcb28f2	0.09919919
156	0x3d096b4c	0.033549592
157	0xbe00f88d	-0.12594815
158	0x3d05fa00	0.03270912
159	0xbdb31106	-0.08743481
160	0x3e02302c	0.12713689
161	0xbd30c6ee	-0.043158464
162	0xbdf06e80	-0.11739826
163	0xbd87deed	-0.066343166
164	0x3e06f258	0.13178384
165	0x3d077a00	0.033075333
166	0x3d1d4c74	0.03840299
167	0x3ddfa904	0.10920909
168	0xbd32ba36	-0.043634616
169	0x3dcb2aec	0.09920296
170	0x3d8b27fe	0.06794737
171	0x3b17c5c0	0.002315864
172	0x3e0095c6	0.12557134
173	0xbc1b9910	-0.009496942
174	0xbdb1b412	-0.08676924
175	0xbe129d4a	-0.14317814
176	0xbdcab32e	-0.09897457
177	0xbdb9a8d2	-0.09065403
178	0x3d4fba6c	0.050714895
179	0x3d75e1d0	0.060029805
180	0xbd195344	-0.037432924
181	0x3c4a1420	0.0123339
182	0x3e01c612	0.12673214
183	0xbb9cbd00	-0.0047832727
184	0x3da6a676	0.08137219
185	0x3d4c6580	0.049901485
186	0x3e09e66c	0.13466805
187	0x3e078c48	0.13237107
188	0xbdce3742	-0.10069133
189	0xbd8d046c	-0.06885609
190	0xbda23a85	-0.07921318
191	0xbd74ca6e	-0.059763364
192	0xbddf835f	-0.10913729
193	0xbdf9d72b	-0.12199243
194	0x3dc31daa	0.09527142
195	0x3d8560fc	0.06512639
196	0x3ddf1228	0.10892135
197	0xbcd15f2c	-0.025558077
198	0x3d90ff3a	0.070799306
199	0xbe105009	-0.14093031
200	0x3d063718	0.032767385
201	0xbc8a4188	-0.01687695
202	0x3d0a7f80	0.033813
203	0xbd08fb92	-0.03344304
204	0x3d6d8324	0.057986394
205	0xbd187d2e	-0.037228756
206	0xbd47216e	-0.048615865
207	0xbc678820	-0.014131576
208	0xbcbaeb54	-0.022817291
209	0xbdb32d58	-0.08748883
210	0x3e0c9014	0.13726836
211	0x3dd3ad94	0.10335842
212	0x3dbf0b2e	0.09328304
213	0xbd85c53c	-0.0653176
214	0x3dcef8de	0.101060614
215	0xbdcf6fcb	-0.10128745
216	0x3dd6a99a	0.10481568
217	0xbc80ea08	-0.015736595
218	0xbcbe6ae8	-0.023244336
219	0xbd9bd2ea	-0.07608588
220	0x3b471780	0.0030378997
221	0xb9ba5600	-0.0003554076
222	0xbbbbb500	-0.005728364
223	0x3daa5eae	0.0831884
224	0xbdf769fa	-0.1208076
225	0xbdbf7928	-0.093492806
226	0xbd864e23	-0.06557872
227	0xbdfe9283	-0.12430289
228	0xbd9fdf27	-0.07806235
229	0x3dc52f28	0.09628135
230	0x3d149af8	0.036280602
231	0xbdbe9802	-0.09306337
232	0xbe05142e	-0.12995979
233	0x3dc1ca28	0.09462386
234	0xbe11b082	-0.14227489
235	0x3db751ea	0.08951171
236	0x3dcae932	0.0990776
237	0xbde96855	-0.11396853
238	0x3d1db8ac	0.038506195
239	0xbd4670de	-0.048447482
240	0xbd31fc60	-0.043453574
241	0x3cb9f460	0.022699535
242	0xbe0687cc	-0.1313774
243	0xbdd61df6	-0.10454933
244	0x3d4ddbf0	0.050258577
245	0xbd120ad6	-0.035654865
246	0xbde329d9	-0.11091966
247	0xbb8c3d40	-0.0042797625
248	0x3b17ec40	0.0023181587
249	0x3d60f6d4	0.054922894
250	0x3daf3bfa	0.085563615
251	0xbde9be7e	-0.114132866
252	0xbd5d917c	-0.054093823
253	0x3e0de36e	0.13856289
254	0xbdf1a1d7	-0.117984466
255	0x3e0963a6	0.13416919

conv5.bias f4 [16]
0	0xbd06e9b0	-0.032937706
1	0xbceaaaa0	-0.028645813
2	0x3abab640	0.0014244989
3	0xbd5617a0	-0.052268624
4	0x3d92899f	0.071551554
5	0xbd8c473c	-0.068495244
6	0x3d2ac16a	0.04168836
7	0xbcc39af6	-0.023877602
8	0xbd38aa6e	-0.04508441
9	0x3b3eb1e0	0.002909772
10	0xbc87a2a0	-0.016557038
11	0xbda2a4a2	-0.079415575
12	0xbb31fca0	-0.0027158633
13	0x3d82f143	0.06393673
14	0x3d7b1812	0.061302252
15	0xbb6e2ce0	-0.0036342666

conv6.weight f4 [16, 16, 3, 3]
0	0xbd5ad848	-0.053428918
1	0x3d718cd8	0.05897221
2	0x3d5d5c00	0.054042816
3	0x3d9d0a0a	0.076679304
4	0xbb9403e0	-0.0045170635
5	0x3db2f774	0.08738604
6	0x3d6483dc	0.055789813
7	0xbdb8f1ae	-0.09030472
8	0xba92dc80	-0.001120463
9	0x3d6a3900	0.057183266
10	0xbdc16b05	-0.094442405
11	0xbd4231dc	-0.04741083
12	0x3d78e048	0.060760766
13	0x3dcc5762	0.099776044
14	0x3d84c82e	0.06483494
15	0x3d9e2b1c	0.07723066
16	0x3d09aabc	0.03361009
17	0x3dd1cfee	0.102447376
18	0xbc478710	-0.0121781975
19	0x3d624404	0.055240646
20	0xbdbdfcc0	-0.09276724
21	0x3c557e50	0.0130306035
22	0x3d515dbc	0.051114783
23	0x3e0ca294	0.13733894
24	0xbd5aa8b0	-0.05338353
25	0x3cb71ed8	0.022353575
26	0xbe01dd2e	-0.1268203
27	0x3b654a00	0.0034986734
28	0x3dad9f2a	0.08477624
29	0x3cc78e78	0.024359927
30	0xbd88c3c8	-0.06677967
31	0x3c00b140	0.00785476
32	0x3df61f90	0.12017739
33	0x3db4f0a2	0.088349596
34	0xbd8b77fb	-0.06809994
35	0xbd3073de	-0.04307925
36	0xbdc7dbd5	-0.097587265
37	0x3e0d0ca8	0.13774359
38	0x3c150df0	0.009097561
39	0xbd76989e	-0.06020414
40	0xbdb39480	-0.087685585
41	0xbe063fb9	-0.13110246
42	0xbca831b4	-0.020531513
43	0xbc398700	-0.01132369
44	0xbd997d29	-0.074945755
45	0xbd9df530	-0.077127814
46	0xbdda5244	-0.10660222
47	0x3da71658	0.081585586
48	0xbdc8c3cb	-0.098029695
49	0x3ce35eb8	0.027755126
50	0x3e12bac0	0.14329052
51	0x3dbb909e	0.09158443
52	0xbc15b560	-0.009137481
53	0x3df841d8	0.12121934
54	0x3d83b714	0.06431404
55	0xbdf41925	-0.119188584
56	0x3d77ba54	0.06048043
57	0xbd0175f6	-0.031606637
58	0x3dcb60a2	0.099305406
59	0x3d0871e4	0.03331174
60	0x3d6dcc0c	0.058055922
61	0xbd66d420	-0.056354642
62	0x3a31cd00	0.00067825615
63	0xbe115c89	-0.14195456
64	0x3df362d8	0.11884087
65	0x3d9715ea	0.07377227
66	0x3da805dc	0.082042426
67	0x3dc7cdbc	0.097560376
68	0x3dfda0d0	0.12384188
69	0xbd3e9664	-0.046530142
70	0xbe135e2d	-0.14391394
71	0x3d876fa4	0.06613091
72	0xbdf1f77e	-0.118147835
73	0x3dd7de40	0.10540438
74	0xbddd61a8	-0.10809642
75	0xbd8f72fa	-0.07004352
76	0xbd45ec76	-0.04832121
77	0xbdf79d5c	-0.12090561
78	0x3d968f4c	0.073515505
79	0x3dfd4938	0.12367481
80	0xbd2fefa2	-0.04295314
81	0xbca43114	-0.020042934
82	0x3d9dcbfe	0.07704924
83	0x3dc239de	0.094836935
84	0x3d7b9d70	0.06142944
85	0xbc9eb9cc	-0.019375704
86	0xbd9c7ff5	-0.07641593
87	0xbc273420	-0.010205299
88	0xbd4bf6e0	-0.049795985
89	0xbc8c75f0	-0.01714608
90	0x3ced6ed0	0.028983504
91	0xbe1001fe	-0.1406326
92	0x3d47d514	0.04878719
93	0xbe0024c0	-0.12514019
94	0xbd76913c	-0.0601971
95	0x3e09e11e	0.13464782
96	0xbd5a4ef2	-0.053297944
97	0xbdcb2650	-0.09919417
98	0xbd9511b5	-0.07278768
99	0xbcb0988c	-0.021557115
100	0x3d9bfada	0.076162055
101	0xbd366c46	-0.04453685
102	0x3d413b7c	0.04717587
103	0xbe092554	-0.13393146
104	0xbe108dd1	-0.14116599
105	0x3cf53e00	0.02993679
106	0xbcfad6d0	-0.030620009
107	0x3dd7cce0	0.10537124
108	0x3e0a8e7c	0.13530916
109	0x3b8ad7e0	0.00423716
110	0x3e08ed02	0.13371661
111	0x3ca6b928	0.020351961
112	0xbd9b2c4e	-0.0757681
113	0xbdc841ac	-0.09778151
114	0x3ce02718	0.027362391
115	0xbdc45ec8	-0.095883906
116	0xbce4ebf8	-0.02794455
117	0xbd97d148	-0.07412964
118	0x3debf5ac	0.115214676
119	0xbcec8734	-0.028873064
120	0x3dae3952	0.08507027
121	0xbc946710	-0.01811555
122	0xbdfeb3fb	-0.12436672
123	0x38ea9800	0.00011186302
124	0x3dbd46da	0.092420295
125	0x3e021512	0.1270335
126	0xbd0e44c0	-0.034733534
127	0xbd23992c	-0.039940998
128	0x3d8c0ece	0.06838761
129	0x3e0cea44	0.1376124
130	0xbd6df0ba	-0.058090903
131	0x3dbca4cc	0.0921112
132	0xbd4f0a3c	-0.05054687
133	0x3de42ff4	0.11141959
134	0xbe0f27d8	-0.13980043
135	0xbd3e5554	-0.046468094
136	0x3dc4756e	0.095927104
137	0x3cec5808	0.02885057
138	0x3c95b330	0.01827392
139	0xbdad8348	-0.084723055
140	0xba2d9500	-0.0006621629
141	0x3d61fa18	0.05517015
142	0xbd54e75c	-0.051978454
143	0x3d95e800	0.07319641
144	0xbda353a7	-0.0797494
145	0x3c31daf0	0.010855421
146	0xbdfb5209	-0.12271506
147	0xbbc1f160	-0.0059186667
148	0x3d9a7aa8	0.07542926
149	0x3dee48e0	0.116349936
150	0x3dec402c	0.11535677
151	0x3c8ebad0	0.017423064
152	0x3d8ea110	0.06964314
153	0xbcabe10c	-0.020981334
154	0x3d00219c	0.031282052
155	0x3a8a8c00	0.0010570288
156	0x3daeebfe	0.08541106
157	0x3dfccc74	0.12343684
158	0x3e01e564	0.12685162
159	0x3d676490	0.05649239
160	0x3d0e5330	0.034747303
161	0xbda257dd	-0.07926915
162	0xbe104c90	-0.14091706
163	0x3de780c4	0.11303857
164	0xbc828f50	-0.015937477
165	0xbe003730	-0.12521052
166	0x3e0644bc	0.13112158
167	0xbd2210b6	-0.039566718
168	0xbe07de99	-0.13268508
169	0x3c5e83d0	0.013581231
170	0xbc582120	-0.013191491
171	0x3d505168	0.050858885
172	0xbd490520	-0.049077153
173	0xbdc85a28	-0.09782821
174	0x3d597838	0.053093165
175	0x3dd20950	0.102556825
176	0x3df3dc9c	0.11907312
177	0xbe061969	-0.1309563
178	0x3c183c50	0.009291723
179	0xbd6dd96e	-0.058068685
180	0x3d0b7360	0.034045577
181	0xbbc0d8c0	-0.0058852136
182	0x3d765a74	0.060144857
183	0x3d727980	0.059197903
184	0xbdc751d6	-0.09732406
185	0x3ddd08b0	0.10792673
186	0x3e0f3e92	0.13988712
187	0x3bd33800	0.0064458847
188	0xbde10b16	-0.109884426
189	0xbc90a8d0	-0.017658621
190	0x3b229980	0.0024810731
191	0xbc310b70	-0.01080595
192	0xbdb96b44	-0.090536624
193	0x3d91bffe	0.07116698
194	0x3da462c0	0.080266476
195	0x3dc86ff4	0.09786978
196	0x3d9de4a2	0.07709624
197	0x3d8fe166	0.07025413
198	0x3e0ab3fc	0.13545221
199	0xbd3c806e	-0.046020918
200	0xbc0ce550	-0.008599594
201	0xbd6fde66	-0.058561705
202	0xbd8535e6	-0.06504421
203	0x3dda7bf0	0.106681705
204	0xbda4642e	-0.0802692
205	0x3dc302a4	0.09521988
206	0xbdf3fa21	-0.11912943
207	0x3dad2ce0	0.08455825
208	0x3dec1634	0.115276724
209	0xbdfd06e2	-0.123548284
210	0x3e0d992c	0.13827962
211	0xbdceb438	-0.10092968
212	0xbd66f738	-0.05638811
213	0x3da435ce	0.08018075
214	0xbe06cf6d	-0.13165064
215	0xbbb4fcc0	-0.005523294
216	0x3de555c0	0.11197996
217	0x3b76d7c0	0.0037665218
218	0xbdf7c622	-0.12098338
219	0x3ce8c608	0.028414741
220	0xbdd7ea5e	-0.10542749
221	0x3d8f474a	0.06996019
222	0x3dce1ffe	0.10064696
223	0xbe0d8be2	-0.13822892
224	0x3dff5594	0.124674946
225	0xbd8405de	-0.064464316
226	0xbad7f000	-0.0016474724
227	0x3e08c728	0.13357222
228	0xbd2824f6	-0.041050874
229	0x3d552c98	0.05204448
230	0x3dcd4bfc	0.100242585
231	0xbd9455be	-0.072429165
232	0x3e131444	0.143632
233	0xbdea44cd	-0.11438904
234	0x3de4b878	0.11167997
235	0x3dcf9542	0.101358905
236	0xbe040f5e	-0.12896487
237	0x3d131438	0.035907954
238	0x3d900414	0.07032028
239	0x3dfef944	0.124498874
240	0x3ca20cc8	0.019781485
241	0xbc910328	-0.0177017
242	0xbc810dc0	-0.015753627
243	0xbdcc3326	-0.09970693
244	0xbcbdd910	-0.023174793
245	0xbd07f8ae	-0.033196144
246	0xbe104d7d	-0.1409206
247	0x3df75360	0.120764494
248	0xbcf75020	-0.030189574
249	0x3ccf7c38	0.025327787
250	0xbdd4cc4f	-0.10390531
251	0x3d869f06	0.065733
252	0xba34ca00	-0.00068965554
253	0x3dd487e0	0.103774786
254	0x3d9e1bcc	0.077201456
255	0xbd8f571f	-0.06999039

conv6.bias f4 [16]
0	0x3d847715	0.064680256
1	0xbd56ea7e	-0.052469723
2	0x3d3633d2	0.044483013
3	0xbd779b73	-0.060450982
4	0x3c1df8d8	0.0096418485
5	0xbd42b58b	-0.047536414
6	0xbb49dda0	-0.0030802265
7	0xbb72c760	-0.0037045106
8	0xbc94a4a4	-0.018144913
9	0x3d338a1a	0.043832876
10	0xbc9d07d4	-0.019168772
11	0x3abda5c0	0.0014468953
12	0x3d25c796	0.040473543
13	0xbd6ade68	-0.05734101
14	0x3ce3b360	0.027795494
15	0x3a9f4a40	0.0012152866
